…
2020-08-09 22:14:03.880758: I tensorflow/core/platform/profile_utils/cpu_utils.cc:104] CPU Frequency: 2300035000 Hz
2020-08-09 22:14:03.881614: I tensorflow/compiler/xla/service/service.cc:168] XLA service 0x5598ef432b10 initialized for platform Host (this does not guarantee that XLA will be used). Devices:
2020-08-09 22:14:03.881654: I tensorflow/compiler/xla/service/service.cc:176]   StreamExecutor device (0): Host, Default Version
Model: "sequential"
_________________________________________________________________
Layer (type)                 Output Shape              Param #
=================================================================
conv2d (Conv2D)              (None, 66, 66, 64)        4864
_________________________________________________________________
batch_normalization (BatchNo (None, 66, 66, 64)        256
_________________________________________________________________
conv2d_1 (Conv2D)            (None, 62, 62, 64)        102464
_________________________________________________________________
max_pooling2d (MaxPooling2D) (None, 31, 31, 64)        0
_________________________________________________________________
batch_normalization_1 (Batch (None, 31, 31, 64)        256
_________________________________________________________________
dropout (Dropout)            (None, 31, 31, 64)        0
_________________________________________________________________
conv2d_2 (Conv2D)            (None, 27, 27, 128)       204928
_________________________________________________________________
batch_normalization_2 (Batch (None, 27, 27, 128)       512
_________________________________________________________________
conv2d_3 (Conv2D)            (None, 23, 23, 128)       409728
_________________________________________________________________
max_pooling2d_1 (MaxPooling2 (None, 11, 11, 128)       0
_________________________________________________________________
batch_normalization_3 (Batch (None, 11, 11, 128)       512
_________________________________________________________________
dropout_1 (Dropout)          (None, 11, 11, 128)       0
_________________________________________________________________
conv2d_4 (Conv2D)            (None, 7, 7, 256)         819456
_________________________________________________________________
batch_normalization_4 (Batch (None, 7, 7, 256)         1024
_________________________________________________________________
conv2d_5 (Conv2D)            (None, 3, 3, 256)         1638656
_________________________________________________________________
max_pooling2d_2 (MaxPooling2 (None, 1, 1, 256)         0
_________________________________________________________________
batch_normalization_5 (Batch (None, 1, 1, 256)         1024
_________________________________________________________________
dropout_2 (Dropout)          (None, 1, 1, 256)         0
_________________________________________________________________
flatten (Flatten)            (None, 256)               0
_________________________________________________________________
dense (Dense)                (None, 256)               65792
_________________________________________________________________
batch_normalization_6 (Batch (None, 256)               1024
_________________________________________________________________
dropout_3 (Dropout)          (None, 256)               0
_________________________________________________________________
dense_1 (Dense)              (None, 256)               65792
_________________________________________________________________
batch_normalization_7 (Batch (None, 256)               1024
_________________________________________________________________
dropout_4 (Dropout)          (None, 256)               0
_________________________________________________________________
dense_2 (Dense)              (None, 12)                3084
=================================================================
Total params: 3,320,396
Trainable params: 3,317,580
Non-trainable params: 2,816
_________________________________________________________________
===== ModelCheckpoint Begins =====
===== trainX.shape[0] =====4275
From CNN_20200809_Original.py:345: Model.fit_generator (from tensorflow.python.keras.engine.training) is deprecated and will be removed in a future version.
…
