…
Requirement already satisfied: joblib>=0.11 in /home/ec2-user/anaconda3/lib/python3.7/site-packages (from scikit-learn) (0.14.1)
Requirement already satisfied: numpy>=1.13.3 in /home/ec2-user/anaconda3/lib/python3.7/site-packages (from scikit-learn) (1.18.1)
Classes: ['Black-grass' 'Charlock' 'Cleavers' 'Common Chickweed' 'Common wheat'
 'Fat Hen' 'Loose Silky-bent' 'Maize' 'Scentless Mayweed'
 'Shepherds Purse' 'Small-flowered Cranesbill' 'Sugar beet']
Number of classes: 12
Model: "sequential"
_________________________________________________________________
Layer (type)                 Output Shape              Param #   
=================================================================
resnet50 (Functional)        (None, 3, 3, 2048)        23587712  
_________________________________________________________________
flatten (Flatten)            (None, 18432)             0         
_________________________________________________________________
dense (Dense)                (None, 1024)              18875392  
_________________________________________________________________
dense_1 (Dense)              (None, 512)               524800    
_________________________________________________________________
dropout (Dropout)            (None, 512)               0         
_________________________________________________________________
dense_2 (Dense)              (None, 256)               131328    
_________________________________________________________________
dropout_1 (Dropout)          (None, 256)               0         
_________________________________________________________________
dense_3 (Dense)              (None, 128)               32896     
_________________________________________________________________
dropout_2 (Dropout)          (None, 128)               0         
_________________________________________________________________
dense_4 (Dense)              (None, 12)                1548      
=================================================================
Total params: 43,153,676
Trainable params: 43,100,556
Non-trainable params: 53,120
_________________________________________________________________
===== ModelCheckpoint Begins =====
===== trainX.shape[0] =====4275
From CNN_20200809_ResNet50.py:349: Model.fit_generator (from tensorflow.python.keras.engine.training) is deprecated and will be removed in a future version.
…
