…
2020-08-09 22:15:30.361654: I tensorflow/core/platform/profile_utils/cpu_utils.cc:104] CPU Frequency: 2300035000 Hz
2020-08-09 22:15:30.362406: I tensorflow/compiler/xla/service/service.cc:168] XLA service 0x5651845bcb10 initialized for platform Host (this does not guarantee that XLA will be used). Devices:
2020-08-09 22:15:30.362437: I tensorflow/compiler/xla/service/service.cc:176]   StreamExecutor device (0): Host, Default Version
Model: "sequential_1"
_________________________________________________________________
Layer (type)                 Output Shape              Param #
=================================================================
vgg19 (Functional)           (None, 2, 2, 512)         20024384
_________________________________________________________________
flatten (Flatten)            (None, 2048)              0
_________________________________________________________________
dense (Dense)                (None, 1024)              2098176
_________________________________________________________________
dense_1 (Dense)              (None, 512)               524800
_________________________________________________________________
dense_2 (Dense)              (None, 256)               131328
_________________________________________________________________
dense_3 (Dense)              (None, 128)               32896
_________________________________________________________________
dense_4 (Dense)              (None, 12)                1548
=================================================================
Total params: 22,813,132
Trainable params: 22,813,132
Non-trainable params: 0
_________________________________________________________________
===== ModelCheckpoint Begins =====
===== trainX.shape[0] =====4275
From CNN_20200809_VGG19.py:379: Model.fit_generator (from tensorflow.python.keras.engine.training) is deprecated and will be removed in a future version.
…
