…
Requirement already satisfied: threadpoolctl>=2.0.0 in /home/ec2-user/anaconda3/lib/python3.7/site-packages (from scikit-learn) (2.1.0)
Requirement already satisfied: numpy>=1.13.3 in /home/ec2-user/anaconda3/lib/python3.7/site-packages (from scikit-learn) (1.18.1)
Classes: ['Black-grass' 'Charlock' 'Cleavers' 'Common Chickweed' 'Common wheat'
 'Fat Hen' 'Loose Silky-bent' 'Maize' 'Scentless Mayweed'
 'Shepherds Purse' 'Small-flowered Cranesbill' 'Sugar beet']
Number of classes: 12
Model: "sequential"
_________________________________________________________________
Layer (type)                 Output Shape              Param #   
=================================================================
vgg16 (Functional)           (None, 2, 2, 512)         14714688  
_________________________________________________________________
flatten (Flatten)            (None, 2048)              0         
_________________________________________________________________
dense (Dense)                (None, 1024)              2098176   
_________________________________________________________________
dense_1 (Dense)              (None, 512)               524800    
_________________________________________________________________
dense_2 (Dense)              (None, 256)               131328    
_________________________________________________________________
dense_3 (Dense)              (None, 128)               32896     
_________________________________________________________________
dense_4 (Dense)              (None, 12)                1548      
=================================================================
Total params: 17,503,436
Trainable params: 17,503,436
Non-trainable params: 0
_________________________________________________________________
===== ModelCheckpoint Begins =====
===== trainX.shape[0] =====4275
From CNN_20200809_VGG16.py:348: Model.fit_generator (from tensorflow.python.keras.engine.training) is deprecated and will be removed in a future version.
…
